…
2026-01-25 03:26:31.832828: I tensorflow/core/common_runtime/gpu/gpu_device.cc:1639] Created device /job:localhost/replica:0/task:0/device:GPU:0 with 42115 MB memory:  -> device: 0, name: NVIDIA GeForce RTX 4090, pci bus id: 0000:00:08.0, compute capability: 8.9
Creating TensorFlow Datasets from GPU tensors...
Sampling: resample, weights=[0.97, 0.015, 0.015], shuffle_buffers=[50000, 2060, 4322], steps_per_epoch=187
Model: "model"
_________________________________________________________________
 Layer (type)                Output Shape              Param #   
=================================================================
 input_1 (InputLayer)        [(None, 748, 1)]          0         
                                                                 
 conv1d (Conv1D)             (None, 748, 16)           256       
                                                                 
 conv1d_1 (Conv1D)           (None, 748, 16)           3856      
                                                                 
 max_pooling1d (MaxPooling1  (None, 374, 16)           0         
 D)                                                              
                                                                 
 dropout (Dropout)           (None, 374, 16)           0         
                                                                 
 conv1d_2 (Conv1D)           (None, 374, 32)           4640      
                                                                 
 conv1d_3 (Conv1D)           (None, 374, 32)           9248      
                                                                 
 max_pooling1d_1 (MaxPoolin  (None, 187, 32)           0         
 g1D)                                                            
                                                                 
 dropout_1 (Dropout)         (None, 187, 32)           0         
                                                                 
 conv1d_4 (Conv1D)           (None, 187, 64)           10304     
                                                                 
 conv1d_5 (Conv1D)           (None, 187, 64)           20544     
                                                                 
 max_pooling1d_2 (MaxPoolin  (None, 93, 64)            0         
 g1D)                                                            
                                                                 
 dropout_2 (Dropout)         (None, 93, 64)            0         
                                                                 
 conv1d_6 (Conv1D)           (None, 93, 256)           49408     
                                                                 
 conv1d_7 (Conv1D)           (None, 93, 256)           196864    
                                                                 
 global_max_pooling1d (Glob  (None, 256)               0         
 alMaxPooling1D)                                                 
                                                                 
 dropout_3 (Dropout)         (None, 256)               0         
                                                                 
 dense_1 (Dense)             (None, 64)                16448     
                                                                 
 dense_2 (Dense)             (None, 64)                4160      
                                                                 
 dense_3_mitbih (Dense)      (None, 3)                 195       
                                                                 
=================================================================
Total params: 315923 (1.21 MB)
Trainable params: 315923 (1.21 MB)
Non-trainable params: 0 (0.00 Byte)
_________________________________________________________________

Starting training...
2026-01-25 03:26:40.681775: W tensorflow/compiler/jit/mark_for_compilation_pass.cc:1794] (One-time warning): Not using XLA:CPU for cluster.
…
