…
Visible GPUs: [PhysicalDevice(name='/physical_device:GPU:0', device_type='GPU')]
Config: batch_size=4096, epochs=50, val_split=0.1, mixed_precision=True, xla=True, steps_per_execution=64
Loading data...
Train shape: X=(784756, 187, 1), Y=(784756,)
Test shape: X=(169991, 187, 1), Y=(169991,)
Model: "model"
_________________________________________________________________
 Layer (type)                Output Shape              Param #   
=================================================================
 input_1 (InputLayer)        [(None, 187, 1)]          0         
                                                                 
 conv1d (Conv1D)             (None, 183, 16)           96        
                                                                 
 conv1d_1 (Conv1D)           (None, 179, 16)           1296      
                                                                 
 max_pooling1d (MaxPooling1  (None, 89, 16)            0         
 D)                                                              
                                                                 
 dropout (Dropout)           (None, 89, 16)            0         
                                                                 
 conv1d_2 (Conv1D)           (None, 87, 32)            1568      
                                                                 
 conv1d_3 (Conv1D)           (None, 85, 32)            3104      
                                                                 
 max_pooling1d_1 (MaxPoolin  (None, 42, 32)            0         
 g1D)                                                            
                                                                 
 dropout_1 (Dropout)         (None, 42, 32)            0         
                                                                 
 conv1d_4 (Conv1D)           (None, 40, 32)            3104      
                                                                 
 conv1d_5 (Conv1D)           (None, 38, 32)            3104      
                                                                 
 max_pooling1d_2 (MaxPoolin  (None, 19, 32)            0         
 g1D)                                                            
                                                                 
 dropout_2 (Dropout)         (None, 19, 32)            0         
                                                                 
 conv1d_6 (Conv1D)           (None, 17, 256)           24832     
                                                                 
 conv1d_7 (Conv1D)           (None, 15, 256)           196864    
                                                                 
 global_max_pooling1d (Glob  (None, 256)               0         
 alMaxPooling1D)                                                 
                                                                 
 dropout_3 (Dropout)         (None, 256)               0         
                                                                 
 dense_1 (Dense)             (None, 64)                16448     
                                                                 
 dense_2 (Dense)             (None, 64)                4160      
                                                                 
 dense_3_mitbih (Dense)      (None, 5)                 325       
                                                                 
=================================================================
Total params: 254901 (995.71 KB)
Trainable params: 254901 (995.71 KB)
Non-trainable params: 0 (0.00 Byte)
_________________________________________________________________

Starting training...
Epoch 1/50
2026-01-22 00:38:26.999937: W tensorflow/compiler/tf2xla/kernels/random_ops.cc:57] Warning: Using tf.random.uniform with XLA compilation will ignore seeds; consider using tf.random.stateless_uniform instead if reproducible behavior is desired. model/dropout/dropout/random_uniform/RandomUniform
…
