…
2026-01-24 20:47:08.878983: W tensorflow/compiler/tf2tensorrt/utils/py_utils.cc:38] TF-TRT Warning: Could not find TensorRT
Loading data...
Data shape: (54325, 30, 1), Labels shape: (54325,)
2026-01-24 20:47:14.964216: E tensorflow/compiler/xla/stream_executor/cuda/cuda_driver.cc:268] failed call to cuInit: CUDA_ERROR_NO_DEVICE: no CUDA-capable device is detected
Model: "sequential"
_________________________________________________________________
 Layer (type)                Output Shape              Param #   
=================================================================
 lstm (LSTM)                 (None, 30, 64)            16896     
                                                                 
 dropout (Dropout)           (None, 30, 64)            0         
                                                                 
 lstm_1 (LSTM)               (None, 32)                12416     
                                                                 
 dropout_1 (Dropout)         (None, 32)                0         
                                                                 
 dense (Dense)               (None, 32)                1056      
                                                                 
 dense_1 (Dense)             (None, 5)                 165       
                                                                 
=================================================================
Total params: 30533 (119.27 KB)
Trainable params: 30533 (119.27 KB)
Non-trainable params: 0 (0.00 Byte)
_________________________________________________________________
Epoch 1/20
  1/612 [..............................] - ETA: 1:03:16 - loss: 1.6325 - accur
…
